para/WeightEnhan_Best.npy (npy, 10296 bytes, 1 tensors)

array f8 [31, 41]
3.446720433822337 -0.21140957057121668 2.3847154304763074 -3.2256243077075464 2.2714950836030576 -3.721931183672987 -2.3024516666596 0.08490261680665978
-0.9039875056186217 -5.716147266023114 -3.211168087638802 0.6756727078402656 3.1757417365662377 0.8296819156013655 -1.552406708530076 0.5930237974498618
-3.2875971436924494 0.019839565940434012 -3.694920590182932 -1.0187202012598158 -1.2614092771763201 0.6041732272587161 -1.605927934256945 1.4040051796240745
-1.3934905569566751 0.6730574042612305 0.5732045655083158 -4.681751733597109 -0.9249050269788509 -0.9281438971682845 -2.55747984911387 -0.6411785712856329
-3.91106865439113 0.11237044590084411 0.019557709076733376 -0.3991089141035449 3.953168322899704 -0.2953132069038289 -0.865057998898664 -2.4645293995384696
-0.4057175794399742 -2.9235536022044917 1.5436372346518108 -2.2952890659489653 -0.6830609260568015 2.980166032665056 1.3283751213172925 -0.5146796828656797
1.7598401940995814 -1.1091174109058053 0.5904678985860643 -0.961820076184013 -2.810876273468925 -0.1394573374830803 0.8693001260937747 -1.6922037444504825
-3.194243767099635 -2.0563921382954646 -5.759550547974016 -2.2153673829822194 -3.150580180607475 3.044810133184521 -2.129750593625792 -4.085858101185338
0.7416835578662238 -1.350421053697506 -0.9027939866212279 -0.6227075935296393 -0.5813730230507639 -1.748889833012553 0.909397194501848 0.046495325020908584
-1.991637039872908 -1.3429292192373716 -2.888737198820629 -0.4382706491637566 0.4764942225950919 0.30150646204417186 0.22948125914779482 -1.2531371893485157
2.1577484941477074 -1.4143633543724077 -0.9398658365224524 -1.672359679270578 -0.837472458099981 -1.481048354880757 3.064358651112901 -0.14830657389451274
-4.365929777716685 -1.8677727584610224 -3.8324550604716463 0.7597979915364246 1.749186464745558 -1.9020858188238776 0.2270652562253117 -1.4203131259187933
-0.18388366854331595 2.4647970102482795 -1.6988959153288579 -3.4662736450506295 0.4365487779134303 0.03311926489497652 0.3476029830018692 1.052909937744908
-2.362296858134644 -4.932029442213276 1.0818127335900276 -1.817300624524858 -3.4148009216635176 -3.336580564199098 1.2567466630798352 -0.6383333734132228
-0.39419593067883674 0.700773741865937 -2.3538018902453306 -3.2502291814143573 -2.7059025602533024 -3.2091492287899457 -1.5821915968524545 -2.7819514643859886
-0.922729574041365 -1.9616982851011595 -1.1599589782473898 0.29958067220871265 1.8025537875463407 2.111875830222351 -0.7701556403707609 -0.5752594252520482
-2.0167604567653115 1.0119639846158108 2.063581725402113 -2.187203607430765 0.5282113301695825 -1.659133077799016 -1.3422299898302725 -0.6314304847477055
-1.8023536351608653 0.7902087544418102 -3.9917047290800247 -2.3907938175129635 -1.2388228829485475 -3.0896474077640033 -0.27872403246846156 -4.02980859839726
-0.8896448591919578 -3.8805297540497894 -1.2904934740438434 0.0161466001276811 3.407128037460434 1.1552686604592273 2.2344824199720645 -0.8640556132453968
3.2314716815436073 -1.4825173477843854 -1.5043950149744691 -3.5641656565092887 -0.5554965069627337 1.1072008078128048 -2.2677162870068557 -1.7412043799345893
-1.9270899411365292 -1.6629051101904317 -2.180766772708406 -3.700079448046099 1.7619362596724728 -4.943506152804591 -2.854164389184156 -0.31251709951118944
1.023123483650398 -1.4172016274092316 -1.5664925818512239 -0.9010469140386627 -1.5226240846884687 0.7534849642950707 -1.9657573721535757 -2.970836922101027
-1.9453256310714275 -0.8074641121421018 1.4584267902273975 2.199755028302215 -1.7988285525432806 -3.928367122921511 -3.7677325596353257 3.2506443056312317
-1.8057395620967909 -0.08418756678525985 2.8345697058784594 -2.3602324811180555 -1.3891479864578757 -2.1611903431777737 -3.1918320066458468 0.5995110735213629
1.1313995389209164 -4.74747687493541 0.9634213252155837 -1.4719342328852938 -0.6327473625053665 -0.6042619970202103 -3.613077344647368 -1.6217418311873835
-2.981826441629477 2.8305031455353675 3.3716963016033166 -0.8319332146004847 -3.3579120409414247 1.3121121257385377 -1.3800036689573185 2.490889012835845
2.937438777321933 2.34581285705857 -1.7905189023063999 -2.9961495764010855 -2.326100016204701 -1.1926904749005702 -2.8476146698579416 1.3867370221374071
0.3149283188926155 -1.0679305702485835 -1.8007859717624437 0.2986289594112119 1.756839109694476 -4.8595906896055805 -0.5322528188614689 -1.600930613587654
-2.4884594014800734 -1.6825119891140963 -0.7309657503483121 2.7391310397897035 -0.8858856733077997 -1.8595335094914218 -3.4543802957890537 0.54799851739269
-2.5037415158791476 -1.227490160872301 0.4261735996161773 -0.8952587953313327 -1.7724572821964593 -1.3454397254723576 0.7966980367876706 -1.0392724416244066
-0.5146536043808034 -0.15430306660659499 -1.6690787087789722 -0.34412177365665364 -1.5536183163693482 1.2676866461990004 0.0036205070072727885 -4.46067588073379
-1.4147078757897618 1.2183491500951886 -1.425731807150855 -1.8450348449195937 0.9873675626618963 -3.1652523550274716 -0.869930212708396 0.18032634102463985
00000000: 64c6 ad29 e292 0b40 8017 d503 780f cbbf
00000010: 654c 01af e513 0340 dc4a f61d 14ce 09c0
00000020: a2cc 489d 052c 0240 53b4 3edb 83c6 0dc0
00000030: b063 87c7 6b6b 02c0 5088 878a 2dbc b53f
00000040: b2fc 9334 77ed ecbf a0c1 7ab5 55dd 16c0
00000050: acf0 f2e4 78b0 09c0 9428 df5e 1c9f e53f
00000060: 00c1 9848 eb67 0940 5ae5 b216 c18c ea3f
00000070: 94a4 b36a a8d6 f8bf 1480 f90a 0dfa e23f
00000080: 1ba8 34bb ff4c 0ac0 c024 86bb d250 943f
00000090: c138 c186 328f 0dc0 97f7 c28d ad4c f0bf
000000a0: 227e 857e bb2e f4bf 203d 8617 6355 e33f
000000b0: d8dc 557d e1b1 f9bf 6c66 9e22 ce76 f63f
000000c0: b39e 16c1 bc4b f6bf 8e3e 74ae af89 e53f
000000d0: dcd5 d819 b157 e23f de29 5f20 1dba 12c0
000000e0: 17f7 586d d298 edbf 8c3b 8ad4 5ab3 edbf
000000f0: 15fc c0fe b775 04c0 672b 52ec 8884 e4bf
00000100: 402a d85c de49 0fc0 205a 2e3e 4fc4 bc3f
00000110: 401d 7aa3 ef06 943f a079 671d 008b d9bf
00000120: ca7f b3b6 16a0 0f40 18a5 6e5d 69e6 d2bf
00000130: 0437 cd1c 8eae ebbf ce62 9830 5bb7 03c0
00000140: 9ed8 c6dd 46f7 d9bf fe91 2c12 7063 07c0
00000150: 7e7a fbf4 bcb2 f83f 03f0 8883 c05c 02c0
00000160: aadc 5296 a2db e5bf 6692 f749 61d7 0740
00000170: 7c0b 6e45 0641 f53f 205c ba86 4178 e0bf
00000180: 0081 fd30 4e28 fc3f ea3b f4e5 f1be f1bf
00000190: ce7a 38ef 1ce5 e23f 0e17 7be5 3ac7 eebf
000001a0: 0a36 1db3 ac7c 06c0 10aa d6ef bcd9 c1bf
000001b0: f267 7f7f 4ed1 eb3f 4756 c93b 4413 fbbf
000001c0: 7f28 19ad cf8d 09c0 20d8 adb8 7d73 00c0
000001d0: 41d4 6c9e c709 17c0 1945 d488 12b9 01c0
000001e0: 3b14 b961 6334 09c0 9474 446a c55b 0840
000001f0: 2d13 e2ad ba09 01c0 31c0 a22f eb57 10c0
00000200: fa85 2028 dfbb e73f d15e 571b 539b f5bf
00000210: 4d09 f236 b0e3 ecbf fcc7 a579 38ed e3bf
00000220: 2ef3 1899 9b9a e2bf 7788 d1e7 73fb fbbf
00000230: f2b4 2e25 c819 ed3f 406d c338 3cce a73f
00000240: 2a1a fccc bedd ffbf 2a7a 5759 a37c f5bf
00000250: d262 9d3f 221c 07c0 1e1f 3d56 a00c dcbf
00000260: e8d8 b19f e17e de3f e4ca 80c2 e14b d33f
00000270: c8d6 8a53 a45f cd3f a673 da94 d90c f4bf
00000280: 78dc 7aa4 1143 0140 ac0b fb77 3ba1 f6bf
00000290: 50bb cf84 6113 eebf e1db 1939 fcc1 fabf
000002a0: 80e2 5a0a 93cc eabf 871e 80c2 5fb2 f7bf
000002b0: e8f4 ed77 ce83 0840 9451 54b6 b5fb c2bf
000002c0: eeb3 af4b b676 11c0 6032 1fb0 65e2 fdbf
000002d0: 63ec e032 dea8 0ec0 cae4 a6e0 4350 e83f
000002e0: 2a02 4bf2 aafc fb3f 008b 208a f16e febf
000002f0: 60d5 c56c 7910 cd3f 7669 9e41 9ab9 f6bf
00000300: ecbd 5403 8089 c7bf 085c b27e e7b7 0340
00000310: ae53 ba7b ad2e fbbf 55d5 43ad edba 0bc0
00000320: 08ce 0f49 6af0 db3f 20d7 2e1f 02f5 a03f
00000330: 6c0b ff94 203f d63f e4f6 4317 b8d8 f03f
00000340: 060e 29e5 fbe5 02c0 4edc 14ed 65ba 13c0
00000350: 02a6 72de 1a4f f13f b05a d5d1 a913 fdbf
00000360: ea29 4725 8351 0bc0 85a2 9d26 51b1 0ac0
00000370: 748f 9463 a21b f43f 2c2a 581c 3a6d e4bf
00000380: 3cd7 9e91 813a d9bf 3cb6 e60d bd6c e63f
00000390: f4ee de15 96d4 02c0 a66f 3528 7800 0ac0
000003a0: d69a d33d b0a5 05c0 6d17 4d6e 56ac 09c0
000003b0: 04cc c722 a850 f9bf ecc6 f4c4 6f41 06c0
000003c0: d8e8 f12b 0087 edbf 6b0f b2bd 1d63 ffbf
000003d0: c662 4425 318f f2bf 849b 6969 542c d33f
000003e0: f0ad eca3 42d7 fc3f 8c24 c027 1fe5 0040
000003f0: 891d 0771 1da5 e8bf b48b 4574 8668 e2bf
00000400: 6062 6d4e 5322 00c0 e079 aa25 0131 f03f
00000410: 79cd b922 3782 0040 ebdd dc9a 647f 01c0
00000420: 7c8f 8e72 1be7 e03f d1bc 4d20 cf8b fabf
00000430: c080 6027 c679 f5bf d40a 36b4 ad34 e4bf
00000440: 6c7b edc3 70d6 fcbf 20e5 aade 6349 e93f
00000450: 7b7f 95e3 02ef 0fc0 ce93 4d82 5820 03c0
00000460: a2ce 7cf1 37d2 f3bf fc23 640f 99b7 08c0
00000470: 16ec 0353 9dd6 d1bf f805 2d25 861e 10c0
00000480: 6516 e97e f877 ecbf e163 062f 530b 0fc0
00000490: 0684 2b7c dca5 f4bf 40bd f5fd bb88 903f
000004a0: f66a 3158 cc41 0b40 fc41 acfd fa7b f23f
000004b0: b922 aa51 38e0 0140 f50d 1af5 57a6 ebbf
000004c0: 7a70 31d3 0dda 0940 16c9 471c 64b8 f7bf
000004d0: db4a d981 0012 f8bf c0de a148 6983 0cc0
000004e0: 474f 4e9c a0c6 e1bf 8c92 ba31 18b7 f13f
000004f0: 7068 ca6f 4824 02c0 4c89 b71f f9db fbbf
00000500: 801c 1a43 5cd5 febf 2ae8 8963 429b fabf
00000510: 78e3 87d9 3572 01c0 85ad ef40 c399 0dc0
00000520: 9ae0 4e13 e430 fc3f 647b 177a 26c6 13c0
00000530: 50a1 a723 54d5 06c0 74d8 75b8 4700 d4bf
00000540: d0c4 e0ba b65e f03f 54f8 189d dbac f6bf
00000550: 4aa4 8786 5a10 f9bf 21a6 7e56 60d5 ecbf
00000560: 2a6c 7d12 ab5c f8bf 109a f57f 8c1c e83f
00000570: 0154 9400 be73 ffbf bc62 f125 46c4 07c0
00000580: 845b d8c4 0d20 ffbf 1402 4bfa bed6 e9bf
00000590: d830 7a54 b755 f73f 1328 0e2a 1999 0140
000005a0: ef8c c472 00c8 fcbf 3809 fdbd 4b6d 0fc0
000005b0: 2daa ddf7 5024 0ec0 0ceb 3ccd 5101 0a40
000005c0: 06c9 c42a 4fe4 fcbf d08f 12fe 508d b5bf
000005d0: b3d7 c7e1 32ad 0640 34df 2a91 c1e1 02c0
000005e0: d440 323d f339 f6bf 5409 a329 1e4a 01c0
000005f0: b1f5 1638 df88 09c0 c0a6 cbd8 312f e33f
00000600: 3eff 2567 361a f23f 9a74 f193 6afd 12c0
00000610: b83c 82f5 58d4 ee3f d6ae 01e9 0a8d f7bf
00000620: e1e7 9265 773f e4bf c65b 6d41 1d56 e3bf
00000630: 866e 4918 95e7 0cc0 5614 f88f a7f2 f9bf
00000640: 5a2c 49d2 c7da 07c0 7165 4ad5 dea4 0640
00000650: 7471 1be9 3bf9 0a40 9449 a567 329f eabf
00000660: 1781 f5fc 00dd 0ac0 84b6 cb48 69fe f43f
00000670: d181 28ba 7e14 f6bf f3c3 0038 57ed 0340
00000680: a7cc d4e6 df7f 0740 b3d2 fc87 39c4 0240
00000690: b469 0426 f7a5 fcbf 0b89 e444 1df8 07c0
000006a0: 1698 4653 da9b 02c0 b42d 7f9b 4215 f3bf
000006b0: 9432 3533 eac7 06c0 b2b8 e328 1330 f63f
000006c0: 4098 8e1b c927 d43f 5adc 995d 3e16 f1bf
000006d0: 5e0b 7df3 04d0 fcbf 94d1 93a3 bc1c d33f
000006e0: 648b 8753 031c fc3f 4e35 af8a 3870 13c0
000006f0: 9fd7 4610 3708 e1bf 1263 486b 699d f9bf
00000700: c53e 1667 5de8 03c0 9cf7 05b1 91eb fabf
00000710: 4bbf 0749 1264 e7bf 8ed7 da88 bde9 0540
00000720: 1743 5be9 2c59 ecbf e64e 9135 a6c0 fdbf
00000730: e7e2 f222 92a2 0bc0 aea8 ce2f 3489 e13f
00000740: 0db5 c2a1 a907 04c0 a5bb 11b9 cca3 f3bf
00000750: fc48 31a2 6d46 db3f 1af1 ecc5 f5a5 ecbf
00000760: 1074 c92a fc5b fcbf b449 3ace eb86 f5bf
00000770: 5e4b 99e1 8c7e e93f 0793 c623 dca0 f0bf
00000780: bab0 f2d5 0a78 e0bf 10b9 5ff0 33c0 c3bf
00000790: 507d 4ae0 8bb4 fabf 0e99 ec54 1706 d6bf
000007a0: ee5d 34e1 9edb f8bf 9402 f0ca 7148 f43f
000007b0: 001c 1ee6 c0a8 6d3f 023b 076b bbd7 11c0
000007c0: 0d92 beb9 a4a2 f6bf ac4a acad 5b7e f33f
000007d0: 4647 c927 cccf f6bf b78f ee41 4385 fdbf
000007e0: 4e73 d8db 8398 ef3f 9570 a3d3 6f52 09c0
000007f0: f950 ace2 77d6 ebbf 2872 a7fc ee14 c73f
