para/WeightTop_Best.npy (npy, 696 bytes, 1 tensors)

array f8 [71, 1]
0	0x41d65efbc781bf3e	1501294366.0272975
1	0xc1f42656f61f5e39	-5408911201.960504
2	0xc1e4cf7f7ca7ccb2	-2793143269.243737
3	0xc1a7cf5beb359400	-199732725.60464478
4	0x41cc381a096c1246	946877458.8443077
5	0xc1d9e01a8354d122	-1736469005.3252645
6	0xc18f0b4f0938991f	-65104353.152635805
7	0x41aa07c79ea2ca87	218358735.3179514
8	0x41c69214ba0c2349	757344628.0948268
9	0x41ebec4b28c5b358	3747764550.1781425
10	0x41bbd4e234509096	466936372.3147062
11	0x41c2286f685a785b	609279696.706798
12	0x41b002c05af23d07	268615770.9462437
13	0xc1cc744aa5662037	-954766666.7978581
14	0x41e024b72572aaad	2166733099.5833344
15	0x41989b09fd5164e8	103203455.32948649
16	0x41a6f20322ac9854	192479633.33709967
17	0x41e06b01bbe10881	2203586015.032288
18	0x41ee47ba74af5818	4064138149.4795036
19	0xc1a5c6b950819adb	-182672552.25313458
20	0xc1b39abaa50cef89	-328907429.05053
21	0x41c96d4cf27098d3	853187044.8796638
22	0xc1c1c5dfd016a1af	-596361120.1768092
23	0x41ec2ee20e37aa26	3782676593.73952
24	0x41ad0549695a6917	243442868.67658302
25	0x41d5228c1dd9aba7	1418342519.4011018
26	0xc1da97ca005cbc9b	-1784621057.4490116
27	0xc1bc8fe885451cee	-479193221.2699727
28	0xc1f07abcd71b98ae	-4423667057.724775
29	0x41ee1ab7bc089849	4040539616.2685895
30	0x410ddaccba7c3acb	244569.59105726177
31	0x41256c0c132877b4	701958.0374181182
32	0x412c779da567a808	932814.8230564604
33	0xc111d76224dcf31a	-292312.5359991059
34	0xc1039f922d8d2317	-160754.27224185385
35	0xc120e0df21938516	-553071.5655786123
36	0x411f655c43e942b8	514391.06631950615
37	0x4111ab061213e9fe	289473.517654091
38	0x412603dae43163b7	721389.4456893121
39	0xc0d8dcece2016378	-25459.70129427637
40	0xc120fd75e86ba725	-556730.9539463265
41	0xc12510bb4f5eb7ad	-690269.655019512
42	0x4118585bbe59ed71	398870.9358899212
43	0xc0e051815df3de0f	-33420.04271882411
44	0xc118d410e9aaafff	-406788.2281901836
45	0xc11238bbb3e9c1c8	-298542.9256963995
46	0xc11485ea04fa613f	-336250.5048613734
47	0x4100131be0b94f01	131683.48472844812
48	0x4109666a3e8e5645	208077.28054492376
49	0x410d782ed0f2cfc3	241413.85202562631
50	0xc10d794bb5d6c977	-241449.4637885799
51	0xc11336759e8c85bf	-314781.4048329256
52	0x41129d63a0d05c34	304984.90704483096
53	0x40d2dc6dbd33f2f9	19313.714673030165
54	0xc1232d0885699611	-628356.2605711838
55	0xc1220185bcfd1657	-590018.8691184026
56	0xc123ae296cc30eeb	-644884.7124256765
57	0xc0ddd7a8c5c0c3d4	-30558.637069884528
58	0xc1244ff078e54b66	-665592.2361243784
59	0x40e4b39131945dd4	42396.53730219198
60	0x412f07fdccc09c90	1016830.8999070097
61	0x41244bafd53cc13b	665047.9164791474
62	0x41257f7aa2d3c39f	704445.3180218822
63	0x4130176923a290b3	1054569.1391992986
64	0xc11e2b439a69f988	-494288.9007948865
65	0x4114dcf892722161	341822.1430134979
66	0xc0ef2d65a4830be7	-63851.17633201909
67	0xc11fe0ce0492346a	-522291.50446397683
68	0x411eb353704d8091	502996.8596706475
69	0xc106b157175149e0	-185898.8863855144
70	0xc103e47ec0070a0b	-162959.84376342627
